model/pose_classifier.tflite (tflite, 27616 bytes, 6 tensors)

dense_2/bias f4 [5]
000000 d7 e0 09 bf c4 f4 3e be 9e c3 08 be 1a 07 de 3e
       -0.53858703 -0.18648058 -0.13355872 0.43364793
000010 8c ea 49 3e
       0.19718379

dense_1/bias f4 [64]
000000 99 3a 26 bc 17 4b 1b 3d f9 d0 a1 3d 8a 52 2d 3d
       -0.010145807 0.037913408 0.079011865 0.042315044
000010 14 33 e4 bb 6e 23 c8 3d 1c ec 0d 3e 02 63 9d 3d
       -0.006964097 0.09772383 0.138596 0.076849
000020 39 aa 80 3e 18 c5 df 3c 35 cb 89 3d b5 39 a9 3e
       0.2512987 0.027315661 0.06728212 0.3305184
000030 ff e9 d9 3d 15 c8 34 3e 28 63 77 bb 34 fb 91 3e
       0.10640334 0.1765445 -0.003774831 0.28511965
000040 3f c9 d9 3c 57 02 df 3d 48 1a d0 3d 75 4c 4e 3d
       0.02658522 0.10889118 0.10161263 0.050365884
000050 a3 37 8a 3d 3a 10 a3 3d 83 99 17 3d 72 7a 05 3e
       0.06748893 0.07962079 0.037011635 0.1303499
000060 b8 0b dc 3d a5 ef 39 3e 8f 7b 5f 3c 0e a1 d3 3d
       0.10744423 0.18157823 0.0136402985 0.10333453
000070 c2 bb f4 3c 3c f1 8f 3d e1 ec 1e be bd 98 12 3d
       0.029874686 0.07028434 -0.1552005 0.035790194
000080 de d2 ef bc 2b 22 48 3d d1 fd 62 3d cb 75 cc 3d
       -0.029275354 0.04886071 0.05541784 0.09983405
000090 34 a6 04 3e 33 bc 56 3d 74 22 e0 3c fe 31 6d 3d
       0.12954026 0.052425575 0.027360179 0.057909004
0000a0 32 2b cf 3d 12 a7 12 3e 78 4f 06 3d 51 81 2f 3e
       0.10115661 0.14321545 0.03279063 0.17139174
0000b0 a5 2f 0a 3e ac de ed 3d 43 bb 27 3e f2 6e 4e 3d
       0.13494737 0.11614737 0.16380028 0.050398774
0000c0 d4 0f a9 3d 12 19 44 3d f4 1d 05 3e 25 9b 9d 3c
       0.08254972 0.04787547 0.12999707 0.019239018
0000d0 a1 31 df b9 4e 77 82 3d d1 7d ba 3e af b9 42 3d
       -0.0004257085 0.06370412 0.36424115 0.047540363
0000e0 a1 43 8c 3d 29 2b a3 3e 25 0c 87 3d 4e 87 25 3d
       0.06848837 0.31868866 0.06594113 0.04041224
0000f0 57 31 4f 3e 7d 41 19 3d b9 59 c8 3d a6 5b 10 3d
       0.20233665 0.03741597 0.09782738 0.035243653

dense/bias f4 [128]
000000 5c 5d 4e 3c 40 04 d6 3b 74 bf 21 bb 96 14 13 3a
       0.012595501 0.0065312684 -0.0024680765 0.00056106725
000010 da 62 8f bc 96 ec 15 3c 92 a1 46 3c da 26 f0 3c
       -0.01750319 0.009150645 0.012123482 0.0293154
000020 0c 26 c4 3b a7 cd f0 3b 70 86 54 3a cd 79 41 3c
       0.005985981 0.0073487344 0.0008107191 0.011808825
000030 0e 1f 13 3c ff c4 1b 3c 67 a9 6b 3c d5 53 18 bb
       0.008979572 0.009507417 0.01438365 -0.0023243327
000040 36 30 c4 b9 ce 84 8e 3b 21 20 e7 3b 8d 09 ac bb
       -0.00037419953 0.0043493276 0.0070533906 -0.005250162
000050 10 98 23 3c 0e 99 09 bd df e1 9c 3b c8 fa 40 3c
       0.009984985 -0.03359323 0.004787668 0.011778541
000060 28 91 47 3c 95 71 f9 3b dd 55 85 3c da 71 2a 3c
       0.012180604 0.007612417 0.016276294 0.010403121
000070 90 d3 43 3c 34 44 99 3c 84 6c 83 3b ce 22 03 3c
       0.011952296 0.01870928 0.004010739 0.008003904
000080 62 c0 09 3c fd 47 51 bb 21 1b 44 bb 7c 5b af 3c
       0.008407684 -0.0031933777 -0.0029923397 0.021405928
000090 c4 e5 2c 3b f0 c8 3c 3c cb 82 d5 bc 84 25 0b bd
       0.0026382068 0.011522517 -0.026063344 -0.033971325
0000a0 9f 06 cc 3c 3d ef d2 3c 74 ac 01 3c 2e 64 0a bb
       0.024905501 0.025748843 0.007914651 -0.002111684
0000b0 ef de 26 3d 22 b5 6f 3d f4 30 8e bc 2d 2b 1c bc
       0.04073995 0.05852235 -0.017357327 -0.009531778
0000c0 c9 ff 07 bd 58 33 c2 3b 91 9b 2e 3c 48 2e 75 3b
       -0.03320292 0.005926531 0.010657207 0.003741162
0000d0 ad ba 1a bd 02 a6 03 3c c6 d0 01 3c 47 c8 2a 3c
       -0.037775684 0.008035185 0.007923311 0.010423726
0000e0 f3 a5 24 3c b2 be 23 3c b2 c7 8d 3c e6 e2 e5 bc
       0.010049331 0.009994196 0.017307136 -0.028062295
0000f0 09 77 c0 3b cc b5 16 3b 85 af bf 3b ae 5f be bc
       0.005873565 0.0022996543 0.005849781 -0.023238983
000100 4c 1e c0 bc f8 f7 26 3c e2 dd a9 3c fb 0c 26 3c
       -0.023451947 0.010190956 0.020735685 0.010134931
000110 e9 0d 9b 3b df 3c eb 3c 9a 33 88 3b 29 01 c6 3b
       0.004731883 0.028715549 0.004156542 0.006042619
000120 1c 18 b8 bc d0 b8 16 3d d2 9f c6 3c cb c2 7e 3c
       -0.022472434 0.036797345 0.02424613 0.015549372
000130 c3 8f cf ba 28 76 4c 3a d6 3a d7 3b 97 c7 58 bd
       -0.0015835691 0.0007799589 0.006568293 -0.05292472
000140 61 32 09 3d 25 43 c6 3c 2b 32 88 3b 6d 79 2a 3c
       0.03349531 0.024201939 0.004156371 0.010404927
000150 21 58 4a 3c b2 29 f1 bc f1 4c 64 3c 1d 7d 91 3a
       0.012350113 -0.029438827 0.01393436 0.0011099909
000160 ab 62 f1 3c c1 f5 92 bd b5 fe 17 3c ad ed e2 3c
       0.029465994 -0.0717578 0.0092770355 0.027701223
000170 3e ae b3 3c 36 3c f0 3c 4f 96 90 3c 92 a3 26 bc
       0.021933671 0.029325586 0.017649798 -0.010170834
000180 8f 32 97 3c 13 e2 44 3c 6e a4 f2 bb 28 58 cc 3a
       0.018456725 0.012016791 -0.0074048555 0.0015590237
000190 0b f7 04 ba db 91 e6 3b fe ee 6f bb 90 b9 01 bc
       -0.00050722127 0.0070364303 -0.0036610956 -0.007917777
0001a0 83 76 5f 3a 73 d0 fd 3b cb 69 9d ba a7 32 13 bc
       0.00085244345 0.0077457963 -0.0012009678 -0.008984244
0001b0 1d 71 eb bb 1d 98 db bc 9f 16 b1 bd f8 1f b6 3b
       -0.007185115 -0.026805932 -0.08646893 0.00555801
0001c0 c7 ed 81 bc e2 8e 3b 3c 8f a4 e4 3a 7c de 9e 3b
       -0.015860451 0.01144764 0.0017444062 0.0048482995
0001d0 07 05 20 bd 30 4f 14 3c 98 35 9b 3c ec 20 a4 3a
       -0.039067294 0.009052083 0.018946454 0.0012522019
0001e0 66 c2 b6 3b 45 1f a5 3c 3d 93 79 bb 6b 31 2b bd
       0.0055773733 0.020156512 -0.0038082146 -0.041795176
0001f0 d3 57 a8 3c 2e 8e c4 3b 23 c0 dd 3c 77 93 06 3c
       0.02054969 0.0059983945 0.027069157 0.008213869

model/dense/MatMul i1 [128, 34] scale=0.011299759 zero_point=0
000000 ed f2 e7 04 00 fe e7 fe 25 f9 ea f8 15 0d f3 f2
       -0.21469542 -0.15819663 -0.28249398 0.045199037 0.0 -0.022599518 -0.28249398 -0.022599518 0.4180911 -0.079098314 -0.2485947 -0.09039807 0.23729494 0.14689687 -0.14689687 -0.15819663
000010 03 04 27 00 ff 01 07 ea 04 1e 13 eb ff e6 64 f1
       0.033899277 0.045199037 0.4406906 0.0 -0.011299759 0.011299759 0.079098314 -0.2485947 0.045199037 0.33899277 0.21469542 -0.23729494 -0.011299759 -0.29379374 1.1299759 -0.16949639
000020 b9 e7 0a fd 14 06 f2 16 fd fe f2 03 fa 12 e5 07
       -0.8022829 -0.28249398 0.11299759 -0.033899277 0.22599518 0.067798555 -0.15819663 0.2485947 -0.033899277 -0.022599518 -0.15819663 0.033899277 -0.067798555 0.20339566 -0.3050935 0.079098314
000030 12 05 f3 0b eb d2 19 e0 18 ea f6 f8 0a 15 e6 2a
       0.20339566 0.056498796 -0.14689687 0.12429735 -0.23729494 -0.5197889 0.28249398 -0.3615923 0.27119422 -0.2485947 -0.11299759 -0.09039807 0.11299759 0.23729494 -0.29379374 0.47458988
000040 d5 fb 17 00 11 fa 07 01 08 f0 fb 09 08 fe f7 0e
       -0.48588964 -0.056498796 0.25989446 0.0 0.1920959 -0.067798555 0.079098314 0.011299759 0.09039807 -0.18079615 -0.056498796 0.10169783 0.09039807 -0.022599518 -0.10169783 0.15819663
000050 10 f5 fe e5 06 f7 ef e9 05 f9 f3 2e fe e2 27 f4
       0.18079615 -0.12429735 -0.022599518 -0.3050935 0.067798555 -0.10169783 -0.1920959 -0.25989446 0.056498796 -0.079098314 -0.14689687 0.5197889 -0.022599518 -0.33899277 0.4406906 -0.13559711
000060 e3 be 15 08 ee fa 12 fe 13 f7 f4 fa 29 fe e6 06
       -0.32769302 -0.7457841 0.23729494 0.09039807 -0.20339566 -0.067798555 0.20339566 -0.022599518 0.21469542 -0.10169783 -0.13559711 -0.067798555 0.46329013 -0.022599518 -0.29379374 0.067798555
000070 25 17 04 fd 20 12 e8 32 d3 eb fc f9 26 2f e7 e2
       0.4180911 0.25989446 0.045199037 -0.033899277 0.3615923 0.20339566 -0.27119422 0.56498796 -0.50848913 -0.23729494 -0.045199037 -0.079098314 0.42939085 0.5310887 -0.28249398 -0.33899277
000080 33 cb dd bb ee 0b 1e 09 e7 07 ec 0d e3 08 e8 fb
       0.57628775 -0.5988872 -0.39549157 -0.77968335 -0.20339566 0.12429735 0.33899277 0.10169783 -0.28249398 0.079098314 -0.22599518 0.14689687 -0.32769302 0.09039807 -0.27119422 -0.056498796
000090 ef f9 f4 13 ea 17 05 0d ff 0c 0c df 04 07 17 de
       -0.1920959 -0.079098314 -0.13559711 0.21469542 -0.2485947 0.25989446 0.056498796 0.14689687 -0.011299759 0.13559711 0.13559711 -0.37289205 0.045199037 0.079098314 0.25989446 -0.3841918
0000a0 f9 2d 0a fe 2f 0e f8 fe 29 0b 0d 05 0c 02 f3 06
       -0.079098314 0.50848913 0.11299759 -0.022599518 0.5310887 0.15819663 -0.09039807 -0.022599518 0.46329013 0.12429735 0.14689687 0.056498796 0.13559711 0.022599518 -0.14689687 0.067798555
0000b0 06 08 f5 f6 11 fa fd 04 e6 f8 e5 08 c3 05 ec 09
       0.067798555 0.09039807 -0.12429735 -0.11299759 0.1920959 -0.067798555 -0.033899277 0.045199037 -0.29379374 -0.09039807 -0.3050935 0.09039807 -0.6892853 0.056498796 -0.22599518 0.10169783
0000c0 01 14 f7 e8 9b df 1e b1 a3 01 60 04 fd 0d 0a 0a
       0.011299759 0.22599518 -0.10169783 -0.27119422 -1.1412756 -0.37289205 0.33899277 -0.892681 -1.0508776 0.011299759 1.0847769 0.045199037 -0.033899277 0.14689687 0.11299759 0.11299759
0000d0 fb 03 0b f0 08 0a f0 07 11 fd 06 1d 15 fc 16 11
       -0.056498796 0.033899277 0.12429735 -0.18079615 0.09039807 0.11299759 -0.18079615 0.079098314 0.1920959 -0.033899277 0.067798555 0.32769302 0.23729494 -0.045199037 0.2485947 0.1920959
0000e0 0b e9 e5 f0 1f 07 00 d4 f6 2b e1 ea ce dd 0f 08
       0.12429735 -0.25989446 -0.3050935 -0.18079615 0.35029253 0.079098314 0.0 -0.4971894 -0.11299759 0.48588964 -0.35029253 -0.2485947 -0.56498796 -0.39549157 0.16949639 0.09039807
0000f0 0c fd 17 12 14 ed 14 06 f8 0c 17 f6 fd 09 0c f2
       0.13559711 -0.033899277 0.25989446 0.20339566 0.22599518 -0.21469542 0.22599518 0.067798555 -0.09039807 0.13559711 0.25989446 -0.11299759 -0.033899277 0.10169783 0.13559711 -0.15819663

model/dense_1/MatMul i1 [64, 128] scale=0.008830384 zero_point=0
000000 e9 ee e8 02 e8 f1 f9 fa eb 08 04 19 0b f0 e6 f7
       -0.20309883 -0.15894692 -0.21192923 0.017660769 -0.21192923 -0.13245577 -0.06181269 -0.052982308 -0.18543807 0.070643075 0.035321537 0.22075962 0.097134225 -0.14128615 -0.22959 -0.07947346
000010 f1 eb e4 da f2 d2 23 f0 f7 d1 dc e4 ec 14 ef e4
       -0.13245577 -0.18543807 -0.24725077 -0.3355546 -0.12362538 -0.40619767 0.30906346 -0.14128615 -0.07947346 -0.41502807 -0.31789383 -0.24725077 -0.17660768 0.17660768 -0.15011653 -0.24725077
000020 eb f0 d6 01 1a f4 32 f7 eb 02 e1 f3 21 0e fa f8
       -0.18543807 -0.14128615 -0.37087613 0.008830384 0.22959 -0.105964616 0.44151923 -0.07947346 -0.18543807 0.017660769 -0.2737419 -0.114795 0.2914027 0.12362538 -0.052982308 -0.070643075
000030 dd d2 f7 00 40 d5 28 21 e6 03 fa e6 0d f6 f0 ea
       -0.30906346 -0.40619767 -0.07947346 0.0 0.5651446 -0.37970653 0.35321537 0.2914027 -0.22959 0.026491154 -0.052982308 -0.22959 0.114795 -0.08830384 -0.14128615 -0.19426845
000040 e4 e8 22 0a 24 fe f3 02 2d f6 06 ea f9 eb fa 31
       -0.24725077 -0.21192923 0.30023307 0.08830384 0.31789383 -0.017660769 -0.114795 0.017660769 0.3973673 -0.08830384 0.052982308 -0.19426845 -0.06181269 -0.18543807 -0.052982308 0.43268883
000050 e9 d9 00 fd e8 12 14 f2 33 e1 fa 1f 0e 0e 0f ef
       -0.20309883 -0.344385 0.0 -0.026491154 -0.21192923 0.15894692 0.17660768 -0.12362538 0.4503496 -0.2737419 -0.052982308 0.2737419 0.12362538 0.12362538 0.13245577 -0.15011653
000060 c5 df df 09 00 17 14 fc e4 e9 00 f5 f7 37 d7 f5
       -0.5209927 -0.2914027 -0.2914027 0.07947346 0.0 0.20309883 0.17660768 -0.035321537 -0.24725077 -0.20309883 0.0 -0.097134225 -0.07947346 0.48567113 -0.36204576 -0.097134225
000070 14 e3 e6 f9 e9 15 eb e4 e3 fb f9 f8 e9 e2 fa d3
       0.17660768 -0.25608113 -0.22959 -0.06181269 -0.20309883 0.18543807 -0.18543807 -0.24725077 -0.25608113 -0.04415192 -0.06181269 -0.070643075 -0.20309883 -0.26491153 -0.052982308 -0.3973673
000080 03 d6 00 04 04 f4 e5 ee fb 02 0a 18 fa f4 03 d7
       0.026491154 -0.37087613 0.0 0.035321537 0.035321537 -0.105964616 -0.23842038 -0.15894692 -0.04415192 0.017660769 0.08830384 0.21192923 -0.052982308 -0.105964616 0.026491154 -0.36204576
000090 0f dd ed d9 f2 c9 22 e8 da db eb ee e7 05 eb fa
       0.13245577 -0.30906346 -0.1677773 -0.344385 -0.12362538 -0.48567113 0.30023307 -0.21192923 -0.3355546 -0.32672423 -0.18543807 -0.15894692 -0.22075962 0.04415192 -0.18543807 -0.052982308
0000a0 cf f5 c4 f1 09 f4 27 f7 db 0e 15 f3 24 02 fe f8
       -0.43268883 -0.097134225 -0.52982306 -0.13245577 0.07947346 -0.105964616 0.344385 -0.07947346 -0.32672423 0.12362538 0.18543807 -0.114795 0.31789383 0.017660769 -0.017660769 -0.070643075
0000b0 f1 e2 f4 fb 2f ef f8 1d f1 18 bd d1 11 f7 e5 fa
       -0.13245577 -0.26491153 -0.105964616 -0.04415192 0.41502807 -0.15011653 -0.070643075 0.25608113 -0.13245577 0.21192923 -0.59163576 -0.41502807 0.15011653 -0.07947346 -0.23842038 -0.052982308
0000c0 c9 d2 14 1d 18 10 fc 02 15 db 0c 0a fe ee 06 22
       -0.48567113 -0.40619767 0.17660768 0.25608113 0.21192923 0.14128615 -0.035321537 0.017660769 0.18543807 -0.32672423 0.105964616 0.08830384 -0.017660769 -0.15894692 0.052982308 0.30023307
0000d0 f6 ef 04 db da ef 28 eb 11 f9 f5 16 0e 08 00 df
       -0.08830384 -0.15011653 0.035321537 -0.32672423 -0.3355546 -0.15011653 0.35321537 -0.18543807 0.15011653 -0.06181269 -0.097134225 0.19426845 0.12362538 0.070643075 0.0 -0.2914027
0000e0 df d0 e1 0b 1e 12 26 e7 e5 db f0 ef f6 35 e7 e9
       -0.2914027 -0.42385846 -0.2737419 0.097134225 0.26491153 0.15894692 0.3355546 -0.22075962 -0.23842038 -0.32672423 -0.14128615 -0.15011653 -0.08830384 0.46801037 -0.22075962 -0.20309883
0000f0 14 fc f5 cf e4 fd f8 ef fb 16 e5 09 d5 f9 eb d5
       0.17660768 -0.035321537 -0.097134225 -0.43268883 -0.24725077 -0.026491154 -0.070643075 -0.15011653 -0.04415192 0.19426845 -0.23842038 0.07947346 -0.37970653 -0.06181269 -0.18543807 -0.37970653

model/dense_2/MatMul f4 [5, 64]
000000 43 f2 3d 3f 8d 17 2e 3f 7e 77 94 3e 21 3d 5b 3e
       0.7419779 0.68004686 0.28997415 0.21410038
000010 49 48 3e bd f3 47 3b bf dc 18 18 bf b0 8c 76 3d
       -0.046455655 -0.7315666 -0.5941293 0.060192764
000020 ec e3 aa bf ab 46 32 3e 1b 79 a5 3e fa e1 ab bf
       -1.3350806 0.1740977 0.3231896 -1.3428338
000030 f8 45 15 bf 36 a9 0b c0 5d 5a 42 be 95 42 b3 bf
       -0.5830989 -2.1822028 -0.18979783 -1.4004694
000040 83 a6 05 bf d0 93 05 bf f3 ae 87 be 2b 39 f5 bd
       -0.522072 -0.5217867 -0.26500663 -0.119737945
000050 c9 9e bd 3d 16 84 90 bf 3d 0b 46 3e 0c 15 8b 3e
       0.092588015 -1.129031 0.19340225 0.27164495
000060 d3 c1 aa 3e b0 aa 8d bf aa 1e 3a 3f 09 c7 d6 be
       0.33351 -1.1067715 0.7270304 -0.41948727
000070 dd e6 26 3f c0 c1 d3 bf 3b a1 1b 3f 74 90 c1 3e
       0.6519602 -1.6543503 0.60792893 0.3780552
000080 56 e6 1d 3f c8 aa da be b7 bd ee be 24 21 87 be
       0.6167959 -0.4270842 -0.46629116 -0.26392472
000090 77 4e 00 bd 63 8f 17 bf 55 63 89 be de f2 4d 3e
       -0.03132483 -0.59203166 -0.26833597 0.20112178
0000a0 22 96 94 bf a8 a6 a9 3e b3 df 96 3e 18 c5 92 bf
       -1.1608317 0.3313496 0.29467544 -1.1466398
0000b0 54 48 63 bf 0a 14 d4 be a9 f0 bf 3e d8 1a 1b 3e
       -0.8878224 -0.4142154 0.37488297 0.15146959
0000c0 7f f4 b5 be 61 77 15 bf c6 a2 db 3e 3e c9 05 3f
       -0.35538098 -0.5838528 0.42897624 0.52260196
0000d0 92 15 84 3e 72 54 d2 be 43 8e 9a bf e3 75 b4 3d
       0.25797707 -0.41080052 -1.2074665 0.088115476
0000e0 eb 22 8e 3d c2 12 72 bf 96 1c 20 3f 04 e7 a8 bf
       0.06940254 -0.9455987 0.6254362 -1.31955
0000f0 bf d2 b2 bf 59 ca aa 3e 8b 4d 7e 3e 90 b8 13 bb
       -1.3970565 0.33357504 0.24834268 -0.0022540428
000100 84 36 84 be 47 cb 3c 3e b8 5f f3 be 62 11 81 bf
       -0.25822842 0.18436919 -0.47533965 -1.008343
000110 9d 17 57 3e b8 a4 2c bf 0a 34 16 be 0c c2 d5 be
       0.21005102 -0.6743884 -0.14668289 -0.4174961
000120 6f 98 a4 3e a1 c7 81 3e 08 a9 7b 3d c9 0d c9 3d
       0.32147548 0.25347617 0.061440498 0.098170824
000130 ed d8 f6 be b7 43 4a 3e e1 b2 a5 3e de fc 89 3c
       -0.48212376 0.19752394 0.32363036 0.01684421
000140 aa 2c 42 3e 38 ef 28 bf 86 bd 4c bf dc 15 08 bf
       0.1896235 -0.6599002 -0.7997669 -0.53158355
000150 57 94 a3 be 30 d1 a0 3e 8d 06 7a 3e f3 36 62 bf
       -0.31949112 0.31409597 0.24416561 -0.88365096
000160 6e 81 00 3f 42 84 fe 3d 22 45 03 bf 47 3e 10 3f
       0.50197494 0.1242757 -0.51277363 0.5634503
000170 3e 1a 08 bf a6 31 c1 3d 87 b5 ab 3e d6 1f 8b bc
       -0.5316504 0.09433298 0.33536932 -0.016982954
000180 ca f5 bb be 48 da 89 be 0f c5 65 3c 95 7e 5b bf
       -0.3671096 -0.26924348 0.014024033 -0.85740024
000190 17 f2 8f bf d5 2d 8e 3e c8 bf 4c bf 8e 17 10 bf
       -1.1245755 0.27769342 -0.79980135 -0.5628594
0001a0 eb 60 33 3f 61 6a 6a bf bb d3 49 3e f8 c1 2b bf
       0.7006976 -0.9156857 0.19709675 -0.6709285
0001b0 d2 32 f2 3d 9a 45 2b 3e 54 97 d5 bf 1d 9b 5a bf
       0.118260995 0.1672577 -1.6686807 -0.85392934
0001c0 2c c7 cb 3e 21 03 99 3e fa 07 9b bf 99 95 5b bf
       0.39800394 0.298852 -1.2111809 -0.8577514
0001d0 3e 4d 27 3e f9 cf 33 3f fa 0a 73 3e f9 a4 30 3e
       0.1633806 0.70239216 0.23734656 0.17250432
0001e0 d1 ba a6 3d bb fb 0d 3e d7 25 7b bf d1 1b 5c 3e
       0.08141101 0.13865559 -0.98104614 0.21494986
0001f0 dd 5d a6 3e 1e 7f 58 bf 43 eb 9c be bf f5 d0 3e
       0.32493487 -0.84568965 -0.3064824 0.4081249
000200 65 b2 53 bf 2c ef 24 bf c1 dc 88 3e 59 1f 71 3e
       -0.82694083 -0.6442745 0.26730922 0.23547114
000210 0c ac 55 bb 30 b9 33 3e 89 43 2a bc d3 11 0c 3e
       -0.0032603769 0.17551112 -0.010392078 0.13678674
000220 2f 10 9e bf 4c 31 1c bf 52 fd a4 3e 2c 0e 81 bf
       -1.2348689 -0.6101272 0.32224518 -1.008245
000230 4f e9 7b 3e 02 11 a0 bf e4 e8 9f bd 36 24 84 bf
       0.24600719 -1.250519 -0.07808092 -1.0323551
000240 f1 8d 49 3e 79 d7 db 3e a5 8d b0 3e 6e a2 00 3f
       0.19683053 0.4293783 0.34483066 0.5024785
000250 99 5e eb 3d bf f6 e3 3d b0 5d 31 3e 71 4a 72 3e
       0.114926524 0.111310475 0.17320895 0.2366121
000260 e2 06 34 3c db 0a c1 bd 90 2d 68 bf b5 2b 02 3f
       0.010987969 -0.09425899 -0.9069452 0.5084794
000270 4e e8 c0 be e2 08 51 bf 95 5f 0b bf 11 af d2 3e
       -0.37677234 -0.8165418 -0.5444272 0.4114919
000280 f3 4e 25 bf 58 0d f3 3e 9c 11 9c 3e cc 36 f3 3e
       -0.6457359 0.47471118 0.30482185 0.47502744
000290 f0 58 b0 3e 38 9c f1 3e a7 0a e8 3e bc 6e 3a 3e
       0.34442854 0.47189498 0.45320627 0.18206304
0002a0 04 1a ca bd e2 29 9b 3e a9 c8 96 3e 9c 01 b8 be
       -0.09868243 0.30305392 0.29449967 -0.35938728
0002b0 65 f3 a6 bd 96 e0 46 3e 17 6c 86 3e 4e c2 3d 3e
       -0.081518926 0.1942161 0.2625434 0.18531153
0002c0 f4 68 cd 3e f1 ea 65 3e 71 40 9e 3e 24 6c 00 bf
       0.40119135 0.22452904 0.3090854 -0.5016501
0002d0 0b e9 21 3e ae 04 9b 3e 0e f6 4c bf b9 e5 8a 3d
       0.15811555 0.30277008 -0.8006295 0.06782097
0002e0 88 1a 82 3d 21 97 8a bf 6a 73 06 bf 13 21 de bd
       0.06352717 -1.0827371 -0.5251986 -0.10846152
0002f0 7b 61 8d bf 56 d7 1b bf f4 79 6f 3e 06 f0 99 3e
       -1.1045374 -0.6087545 0.23386365 0.30065936
000300 fe 0f 92 be 01 7c f3 be 67 b2 90 bf 12 2f 41 bf
       -0.28527826 -0.47555545 -1.1304444 -0.7546245
000310 40 7d f1 bf f3 ee 31 3f 71 5b 59 be 96 d0 80 bf
       -1.8866348 0.6950523 -0.21226288 -1.0063655
000320 59 41 f5 3d ee a2 c6 bf da b7 b4 be 82 99 e7 3d
       0.11975355 -1.5518472 -0.35296518 0.11308576
000330 b3 b4 30 3f 02 57 9e 3e 63 4d e0 bf 5e 07 fb 3e
       0.69025725 0.30925757 -1.7523617 0.49029058
000340 57 a4 a7 bf 35 95 48 3f 6c 38 f4 3e 42 eb a1 be
       -1.3097028 0.7835267 0.47699296 -0.316248
000350 45 fd aa bf 5d a8 09 bf e1 82 cd bf 46 29 c5 be
       -1.3358542 -0.53772527 -1.6055566 -0.38508052
000360 56 e6 3f 3f 16 76 80 3e 2f 1d 9d be 2e b2 aa 3c
       0.7496084 0.25090092 -0.30686328 0.020836916
000370 35 f5 da be 47 54 84 bf d0 f7 aa 3e 8b 7b 5f be
       -0.42765203 -1.033822 0.3339219 -0.21824472
000380 e2 83 68 be 63 11 59 bf 06 22 28 be 29 4d 46 3f
       -0.2270656 -0.84792155 -0.16419229 0.7746149
000390 51 a4 e6 3e 1f d7 aa be de 9e 67 bd 33 63 05 bf
       0.45047238 -0.3336725 -0.056547992 -0.5210449
0003a0 eb 1e 54 3f 5f bd 96 be 51 fe ac bf 12 68 89 3f
       0.8285968 -0.29441354 -1.3515111 1.0734885
0003b0 18 51 3f be 61 29 04 3d c3 58 c8 bb 18 2d 56 3e
       -0.18683279 0.032266025 -0.006114097 0.2091564
0003c0 61 76 04 3d 51 8b 8a bf 3d ab ec be 75 3f 12 bf
       0.032339457 -1.0823766 -0.46224394 -0.5712808
0003d0 87 19 d7 bf b5 15 aa bd 2f 50 ae 3e df 80 51 3e
       -1.6804665 -0.083049215 0.3404555 0.20459317
0003e0 4a cb c4 be e0 78 b9 3e 67 8a c6 be 2f 65 95 bf
       -0.38436347 0.36225033 -0.38777468 -1.1671504
0003f0 fe 9b 29 bd ea 1a 89 be 4c 5f f2 be a5 2f 84 be
       -0.04140853 -0.26778346 -0.4733833 -0.258176
